sub_task/pre_training/xor.ckpt (torch, 4862 bytes, 9 tensors)

fc.0.weight f4 [2, 2]
000000 a6 85 8b 3f 94 7c 8c 3f 24 ac 26 bf df 41 27 bf
       1.0900161 1.0975518 -0.65106416 -0.65334886

fc.0.bias f4 [2]
000000 70 1f 8d bf 3f c9 25 3f
       -1.1025219 0.647602

fc.2.weight f4 [1, 2]
000000 11 d6 01 c0 c6 c2 7e bf
       -2.0286906 -0.9951595

exp_avg f4 [2, 2]
000000 fe f4 28 3b 47 2a 79 3b e2 30 23 3c 05 0d a3 3c
       0.0025780792 0.0038019584 0.009960385 0.01990367

exp_avg_sq f4 [2, 2]
000000 8e 8f 5c 39 aa e8 86 39 7c 24 4f 38 6c 81 9e 38
       0.00021034313 0.0002573182 4.9386625e-05 7.558134e-05

exp_avg f4 [2]
000000 f4 67 ce 3c 85 65 cc bc
       0.025196053 -0.024950752

exp_avg_sq f4 [2]
000000 95 11 01 3a de b1 0b 39
       0.00049235794 0.00013322334

exp_avg f4 [1, 2]
000000 16 b0 27 3c ec 3b 13 3d
       0.010234853 0.035945818

exp_avg_sq f4 [1, 2]
000000 c9 08 9e 38 64 d0 f8 38
       7.5356635e-05 0.00011864377
